…
    "**TODO**:implement `MultilayerGRU` class in the `hw3/charnn.py` module.\n",
    "\n",
    "\n",
    "Notes:\n",
    "- We use **batches** now.\n",
    "  The math is identical to the above, but all the tensors will have an extra batch \n",
    "  dimension as their first dimension.\n",
    "- Before you read the implementation, read the diagram above, try to understand all the dimentions.\n"
   ]
  },
  {
   "cell_type": "code",
   "execution_count": 14,
   "metadata": {},
   "outputs": [
    {
     "name": "stdout",
     "output_type": "stream",
     "text": [
      "MultilayerGRU(\n",
      "  (l0_xz): Linear(in_features=78, out_features=256, bias=True)\n",
      "  (l0_hz): Linear(in_features=256, out_features=256, bias=False)\n",
      "  (l0_xr): Linear(in_features=78, out_features=256, bias=True)\n",
      "  (l0_hr): Linear(in_features=256, out_features=256, bias=False)\n",
      "  (l0_xg): Linear(in_features=78, out_features=256, bias=True)\n",
      "  (l0_hg): Linear(in_features=256, out_features=256, bias=False)\n",
      "  (l1_xz): Linear(in_features=256, out_features=256, bias=True)\n",
      "  (l1_hz): Linear(in_features=256, out_features=256, bias=False)\n",
      "  (l1_xr): Linear(in_features=256, out_features=256, bias=True)\n",
      "  (l1_hr): Linear(in_features=256, out_features=256, bias=False)\n",
      "  (l1_xg): Linear(in_features=256, out_features=256, bias=True)\n",
      "  (l1_hg): Linear(in_features=256, out_features=256, bias=False)\n",
      "  (l2_xz): Linear(in_features=256, out_features=256, bias=True)\n",
      "  (l2_hz): Linear(in_features=256, out_features=256, bias=False)\n",
      "  (l2_xr): Linear(in_features=256, out_features=256, bias=True)\n",
      "  (l2_hr): Linear(in_features=256, out_features=256, bias=False)\n",
      "  (l2_xg): Linear(in_features=256, out_features=256, bias=True)\n",
      "  (l2_hg): Linear(in_features=256, out_features=256, bias=False)\n",
      "  (dropout): Dropout(p=0, inplace=False)\n",
      "  (why): Linear(in_features=256, out_features=78, bias=True)\n",
      ")\n",
      "y.shape=torch.Size([32, 64, 78])\n",
      "h.shape=torch.Size([32, 3, 256])\n"
     ]
    }
   ],
   "source": [
    "in_dim = vocab_len\n",
    "h_dim = 256\n",
    "n_layers = 3\n",
    "model = charnn.MultilayerGRU(in_dim, h_dim, out_dim=in_dim, n_layers=n_layers)\n",
    "model = model.to(device)\n",
    "print(model)\n",
    "\n",
…
